…
I0823 15:23:36.340498 39958 net.cpp:294] The NetState phase (0) differed from the phase (1) specified by a rule in layer mnist
I0823 15:23:36.340533 39958 net.cpp:294] The NetState phase (0) differed from the phase (1) specified by a rule in layer accuracy
I0823 15:23:36.340626 39958 net.cpp:51] Initializing net from parameters: 
name: "LeNet"
state {
  phase: TRAIN
  level: 0
  stage: ""
}
layer {
  name: "mnist"
  type: "Data"
  top: "data"
  top: "label"
  include {
    phase: TRAIN
  }
  transform_param {
    scale: 0.00390625
  }
  data_param {
    source: "examples/mnist/mnist_train_lmdb"
    batch_size: 64
    backend: LMDB
  }
}
layer {
  name: "conv1"
  type: "Convolution"
  bottom: "data"
  top: "conv1"
  param {
    lr_mult: 1
  }
  param {
    lr_mult: 2
  }
  convolution_param {
    num_output: 20
    kernel_size: 5
    stride: 1
    weight_filler {
      type: "xavier"
    }
    bias_filler {
      type: "constant"
    }
  }
}
layer {
  name: "pool1"
  type: "Pooling"
  bottom: "conv1"
  top: "pool1"
  pooling_param {
    pool: MAX
    kernel_size: 2
    stride: 2
  }
}
layer {
  name: "conv2"
  type: "Convolution"
  bottom: "pool1"
  top: "conv2"
  param {
    lr_mult: 1
  }
  param {
    lr_mult: 2
  }
  convolution_param {
    num_output: 50
    kernel_size: 5
    stride: 1
    weight_filler {
      type: "xavier"
    }
    bias_filler {
      type: "constant"
    }
  }
}
layer {
  name: "pool2"
  type: "Pooling"
  bottom: "conv2"
  top: "pool2"
  pooling_param {
    pool: MAX
    kernel_size: 2
    stride: 2
  }
}
layer {
  name: "ip1"
  type: "InnerProduct"
  bottom: "pool2"
  top: "ip1"
  param {
    lr_mult: 1
  }
  param {
    lr_mult: 2
  }
  inner_product_param {
    num_output: 500
    weight_filler {
      type: "xavier"
    }
    bias_filler {
      type: "constant"
    }
  }
}
layer {
  name: "relu1"
  type: "ReLU"
  bottom: "ip1"
  top: "ip1"
}
layer {
  name: "ip2"
  type: "InnerProduct"
  bottom: "ip1"
  top: "ip2"
  param {
    lr_mult: 1
  }
  param {
    lr_mult: 2
  }
  inner_product_param {
    num_output: 10
    weight_filler {
      type: "xavier"
    }
    bias_filler {
      type: "constant"
    }
  }
}
layer {
  name: "loss"
  type: "SoftmaxWithLoss"
  bottom: "ip2"
  bottom: "label"
  top: "loss"
}
I0823 15:23:36.341208 39958 layer_factory.hpp:77] Creating layer mnist
I0823 15:23:36.341445 39958 db_lmdb.cpp:35] Opened lmdb examples/mnist/mnist_train_lmdb
I0823 15:23:36.341513 39958 net.cpp:84] Creating Layer mnist
I0823 15:23:36.341544 39958 net.cpp:380] mnist -> data
I0823 15:23:36.341701 39958 net.cpp:380] mnist -> label
I0823 15:23:36.343536 39958 data_layer.cpp:45] output data size: 64,1,28,28
I0823 15:23:36.345976 39958 base_data_layer.cpp:72] Initializing prefetch
I0823 15:23:36.346181 39958 base_data_layer.cpp:75] Prefetch initialized.
I0823 15:23:36.346194 39958 net.cpp:122] Setting up mnist
I0823 15:23:36.346222 39958 net.cpp:129] Top shape: 64 1 28 28 (50176)
I0823 15:23:36.346232 39958 net.cpp:129] Top shape: 64 (64)
I0823 15:23:36.346236 39958 net.cpp:137] Memory required for data: 200960
I0823 15:23:36.346259 39958 layer_factory.hpp:77] Creating layer conv1
I0823 15:23:36.346315 39958 net.cpp:84] Creating Layer conv1
I0823 15:23:36.346339 39958 net.cpp:406] conv1 <- data
I0823 15:23:36.346392 39958 net.cpp:380] conv1 -> conv1
I0823 15:23:37.272191 39958 cudnn_conv_layer.cpp:194] Reallocating workspace storage: 17882112
I0823 15:23:37.272652 39958 net.cpp:122] Setting up conv1
I0823 15:23:37.272688 39958 net.cpp:129] Top shape: 64 20 24 24 (737280)
I0823 15:23:37.272717 39958 net.cpp:137] Memory required for data: 3150080
I0823 15:23:37.272843 39958 layer_factory.hpp:77] Creating layer pool1
I0823 15:23:37.272904 39958 net.cpp:84] Creating Layer pool1
I0823 15:23:37.272922 39958 net.cpp:406] pool1 <- conv1
I0823 15:23:37.272953 39958 net.cpp:380] pool1 -> pool1
I0823 15:23:37.273054 39958 net.cpp:122] Setting up pool1
I0823 15:23:37.273072 39958 net.cpp:129] Top shape: 64 20 12 12 (184320)
I0823 15:23:37.273077 39958 net.cpp:137] Memory required for data: 3887360
I0823 15:23:37.273084 39958 layer_factory.hpp:77] Creating layer conv2
I0823 15:23:37.273124 39958 net.cpp:84] Creating Layer conv2
I0823 15:23:37.273134 39958 net.cpp:406] conv2 <- pool1
I0823 15:23:37.273159 39958 net.cpp:380] conv2 -> conv2
I0823 15:23:37.276633 39958 cudnn_conv_layer.cpp:194] Reallocating workspace storage: 10272
I0823 15:23:37.276662 39958 net.cpp:122] Setting up conv2
I0823 15:23:37.276674 39958 net.cpp:129] Top shape: 64 50 8 8 (204800)
I0823 15:23:37.276680 39958 net.cpp:137] Memory required for data: 4706560
I0823 15:23:37.276710 39958 layer_factory.hpp:77] Creating layer pool2
I0823 15:23:37.276733 39958 net.cpp:84] Creating Layer pool2
I0823 15:23:37.276744 39958 net.cpp:406] pool2 <- conv2
I0823 15:23:37.276767 39958 net.cpp:380] pool2 -> pool2
I0823 15:23:37.276836 39958 net.cpp:122] Setting up pool2
I0823 15:23:37.276849 39958 net.cpp:129] Top shape: 64 50 4 4 (51200)
I0823 15:23:37.276854 39958 net.cpp:137] Memory required for data: 4911360
I0823 15:23:37.276861 39958 layer_factory.hpp:77] Creating layer ip1
I0823 15:23:37.276901 39958 net.cpp:84] Creating Layer ip1
I0823 15:23:37.276911 39958 net.cpp:406] ip1 <- pool2
I0823 15:23:37.276934 39958 net.cpp:380] ip1 -> ip1
I0823 15:23:37.303931 39958 net.cpp:122] Setting up ip1
I0823 15:23:37.303952 39958 net.cpp:129] Top shape: 64 500 (32000)
I0823 15:23:37.303957 39958 net.cpp:137] Memory required for data: 5039360
I0823 15:23:37.303987 39958 layer_factory.hpp:77] Creating layer relu1
I0823 15:23:37.304018 39958 net.cpp:84] Creating Layer relu1
I0823 15:23:37.304028 39958 net.cpp:406] relu1 <- ip1
I0823 15:23:37.304046 39958 net.cpp:367] relu1 -> ip1 (in-place)
I0823 15:23:37.304932 39958 net.cpp:122] Setting up relu1
I0823 15:23:37.304949 39958 net.cpp:129] Top shape: 64 500 (32000)
I0823 15:23:37.304955 39958 net.cpp:137] Memory required for data: 5167360
I0823 15:23:37.304961 39958 layer_factory.hpp:77] Creating layer ip2
I0823 15:23:37.304985 39958 net.cpp:84] Creating Layer ip2
I0823 15:23:37.304996 39958 net.cpp:406] ip2 <- ip1
I0823 15:23:37.305022 39958 net.cpp:380] ip2 -> ip2
I0823 15:23:37.307077 39958 net.cpp:122] Setting up ip2
I0823 15:23:37.307096 39958 net.cpp:129] Top shape: 64 10 (640)
I0823 15:23:37.307102 39958 net.cpp:137] Memory required for data: 5169920
I0823 15:23:37.307118 39958 layer_factory.hpp:77] Creating layer loss
I0823 15:23:37.307154 39958 net.cpp:84] Creating Layer loss
I0823 15:23:37.307164 39958 net.cpp:406] loss <- ip2
I0823 15:23:37.307181 39958 net.cpp:406] loss <- label
I0823 15:23:37.307199 39958 net.cpp:380] loss -> loss
I0823 15:23:37.307235 39958 layer_factory.hpp:77] Creating layer loss
…
I0823 15:23:37.308317 39958 solver.cpp:190] Creating test net (#0) specified by net file: examples/mnist/lenet_train_test.prototxt
I0823 15:23:37.308390 39958 net.cpp:294] The NetState phase (1) differed from the phase (0) specified by a rule in layer mnist
I0823 15:23:37.308513 39958 net.cpp:51] Initializing net from parameters: 
name: "LeNet"
state {
  phase: TEST
}
layer {
  name: "mnist"
  type: "Data"
  top: "data"
  top: "label"
  include {
    phase: TEST
  }
  transform_param {
    scale: 0.00390625
  }
  data_param {
    source: "examples/mnist/mnist_test_lmdb"
    batch_size: 100
    backend: LMDB
  }
}
layer {
  name: "conv1"
  type: "Convolution"
  bottom: "data"
  top: "conv1"
  param {
    lr_mult: 1
  }
  param {
    lr_mult: 2
  }
  convolution_param {
    num_output: 20
    kernel_size: 5
    stride: 1
    weight_filler {
      type: "xavier"
    }
    bias_filler {
      type: "constant"
    }
  }
}
layer {
  name: "pool1"
  type: "Pooling"
  bottom: "conv1"
  top: "pool1"
  pooling_param {
    pool: MAX
    kernel_size: 2
    stride: 2
  }
}
layer {
  name: "conv2"
  type: "Convolution"
  bottom: "pool1"
  top: "conv2"
  param {
    lr_mult: 1
  }
  param {
    lr_mult: 2
  }
  convolution_param {
    num_output: 50
    kernel_size: 5
    stride: 1
    weight_filler {
      type: "xavier"
    }
    bias_filler {
      type: "constant"
    }
  }
}
layer {
  name: "pool2"
  type: "Pooling"
  bottom: "conv2"
  top: "pool2"
  pooling_param {
    pool: MAX
    kernel_size: 2
    stride: 2
  }
}
layer {
  name: "ip1"
  type: "InnerProduct"
  bottom: "pool2"
  top: "ip1"
  param {
    lr_mult: 1
  }
  param {
    lr_mult: 2
  }
  inner_product_param {
    num_output: 500
    weight_filler {
      type: "xavier"
    }
    bias_filler {
      type: "constant"
    }
  }
}
layer {
  name: "relu1"
  type: "ReLU"
  bottom: "ip1"
  top: "ip1"
}
layer {
  name: "ip2"
  type: "InnerProduct"
  bottom: "ip1"
  top: "ip2"
  param {
    lr_mult: 1
  }
  param {
    lr_mult: 2
  }
  inner_product_param {
    num_output: 10
    weight_filler {
      type: "xavier"
    }
    bias_filler {
      type: "constant"
    }
  }
}
layer {
  name: "accuracy"
  type: "Accuracy"
  bottom: "ip2"
  bottom: "label"
  top: "accuracy"
  include {
    phase: TEST
  }
}
layer {
  name: "loss"
  type: "SoftmaxWithLoss"
  bottom: "ip2"
  bottom: "label"
  top: "loss"
}
I0823 15:23:37.308782 39958 layer_factory.hpp:77] Creating layer mnist
I0823 15:23:37.308899 39958 db_lmdb.cpp:35] Opened lmdb examples/mnist/mnist_test_lmdb
I0823 15:23:37.308928 39958 net.cpp:84] Creating Layer mnist
I0823 15:23:37.308945 39958 net.cpp:380] mnist -> data
I0823 15:23:37.308980 39958 net.cpp:380] mnist -> label
I0823 15:23:37.309134 39958 data_layer.cpp:45] output data size: 100,1,28,28
I0823 15:23:37.311775 39958 base_data_layer.cpp:72] Initializing prefetch
I0823 15:23:37.311872 39958 base_data_layer.cpp:75] Prefetch initialized.
I0823 15:23:37.311880 39958 net.cpp:122] Setting up mnist
I0823 15:23:37.311889 39958 net.cpp:129] Top shape: 100 1 28 28 (78400)
I0823 15:23:37.311897 39958 net.cpp:129] Top shape: 100 (100)
I0823 15:23:37.311902 39958 net.cpp:137] Memory required for data: 314000
I0823 15:23:37.311913 39958 layer_factory.hpp:77] Creating layer label_mnist_1_split
I0823 15:23:37.311944 39958 net.cpp:84] Creating Layer label_mnist_1_split
I0823 15:23:37.311956 39958 net.cpp:406] label_mnist_1_split <- label
I0823 15:23:37.311980 39958 net.cpp:380] label_mnist_1_split -> label_mnist_1_split_0
I0823 15:23:37.312006 39958 net.cpp:380] label_mnist_1_split -> label_mnist_1_split_1
I0823 15:23:37.312224 39958 net.cpp:122] Setting up label_mnist_1_split
I0823 15:23:37.312265 39958 net.cpp:129] Top shape: 100 (100)
I0823 15:23:37.312274 39958 net.cpp:129] Top shape: 100 (100)
I0823 15:23:37.312278 39958 net.cpp:137] Memory required for data: 314800
I0823 15:23:37.312328 39958 layer_factory.hpp:77] Creating layer conv1
I0823 15:23:37.312405 39958 net.cpp:84] Creating Layer conv1
I0823 15:23:37.312422 39958 net.cpp:406] conv1 <- data
I0823 15:23:37.312466 39958 net.cpp:380] conv1 -> conv1
I0823 15:23:37.314957 39958 cudnn_conv_layer.cpp:194] Reallocating workspace storage: 17772
I0823 15:23:37.314990 39958 net.cpp:122] Setting up conv1
I0823 15:23:37.315002 39958 net.cpp:129] Top shape: 100 20 24 24 (1152000)
I0823 15:23:37.315008 39958 net.cpp:137] Memory required for data: 4922800
I0823 15:23:37.315047 39958 layer_factory.hpp:77] Creating layer pool1
I0823 15:23:37.315076 39958 net.cpp:84] Creating Layer pool1
I0823 15:23:37.315088 39958 net.cpp:406] pool1 <- conv1
I0823 15:23:37.315107 39958 net.cpp:380] pool1 -> pool1
I0823 15:23:37.315192 39958 net.cpp:122] Setting up pool1
I0823 15:23:37.315207 39958 net.cpp:129] Top shape: 100 20 12 12 (288000)
I0823 15:23:37.315212 39958 net.cpp:137] Memory required for data: 6074800
I0823 15:23:37.315218 39958 layer_factory.hpp:77] Creating layer conv2
I0823 15:23:37.315249 39958 net.cpp:84] Creating Layer conv2
I0823 15:23:37.315263 39958 net.cpp:406] conv2 <- pool1
I0823 15:23:37.315290 39958 net.cpp:380] conv2 -> conv2
I0823 15:23:37.319648 39958 cudnn_conv_layer.cpp:194] Reallocating workspace storage: 10272
I0823 15:23:37.319680 39958 net.cpp:122] Setting up conv2
I0823 15:23:37.319692 39958 net.cpp:129] Top shape: 100 50 8 8 (320000)
I0823 15:23:37.319700 39958 net.cpp:137] Memory required for data: 7354800
I0823 15:23:37.319728 39958 layer_factory.hpp:77] Creating layer pool2
I0823 15:23:37.319754 39958 net.cpp:84] Creating Layer pool2
I0823 15:23:37.319764 39958 net.cpp:406] pool2 <- conv2
I0823 15:23:37.319787 39958 net.cpp:380] pool2 -> pool2
I0823 15:23:37.319867 39958 net.cpp:122] Setting up pool2
I0823 15:23:37.319880 39958 net.cpp:129] Top shape: 100 50 4 4 (80000)
I0823 15:23:37.319886 39958 net.cpp:137] Memory required for data: 7674800
I0823 15:23:37.319895 39958 layer_factory.hpp:77] Creating layer ip1
I0823 15:23:37.319916 39958 net.cpp:84] Creating Layer ip1
I0823 15:23:37.319926 39958 net.cpp:406] ip1 <- pool2
I0823 15:23:37.319952 39958 net.cpp:380] ip1 -> ip1
I0823 15:23:37.346596 39958 net.cpp:122] Setting up ip1
I0823 15:23:37.346614 39958 net.cpp:129] Top shape: 100 500 (50000)
I0823 15:23:37.346618 39958 net.cpp:137] Memory required for data: 7874800
I0823 15:23:37.346647 39958 layer_factory.hpp:77] Creating layer relu1
I0823 15:23:37.346669 39958 net.cpp:84] Creating Layer relu1
I0823 15:23:37.346680 39958 net.cpp:406] relu1 <- ip1
I0823 15:23:37.346699 39958 net.cpp:367] relu1 -> ip1 (in-place)
I0823 15:23:37.347102 39958 net.cpp:122] Setting up relu1
I0823 15:23:37.347116 39958 net.cpp:129] Top shape: 100 500 (50000)
I0823 15:23:37.347121 39958 net.cpp:137] Memory required for data: 8074800
I0823 15:23:37.347128 39958 layer_factory.hpp:77] Creating layer ip2
I0823 15:23:37.347158 39958 net.cpp:84] Creating Layer ip2
I0823 15:23:37.347169 39958 net.cpp:406] ip2 <- ip1
I0823 15:23:37.347196 39958 net.cpp:380] ip2 -> ip2
I0823 15:23:37.347705 39958 net.cpp:122] Setting up ip2
I0823 15:23:37.347719 39958 net.cpp:129] Top shape: 100 10 (1000)
I0823 15:23:37.347724 39958 net.cpp:137] Memory required for data: 8078800
I0823 15:23:37.347739 39958 layer_factory.hpp:77] Creating layer ip2_ip2_0_split
I0823 15:23:37.347755 39958 net.cpp:84] Creating Layer ip2_ip2_0_split
I0823 15:23:37.347764 39958 net.cpp:406] ip2_ip2_0_split <- ip2
I0823 15:23:37.347784 39958 net.cpp:380] ip2_ip2_0_split -> ip2_ip2_0_split_0
I0823 15:23:37.347806 39958 net.cpp:380] ip2_ip2_0_split -> ip2_ip2_0_split_1
I0823 15:23:37.347867 39958 net.cpp:122] Setting up ip2_ip2_0_split
I0823 15:23:37.347878 39958 net.cpp:129] Top shape: 100 10 (1000)
I0823 15:23:37.347885 39958 net.cpp:129] Top shape: 100 10 (1000)
I0823 15:23:37.347888 39958 net.cpp:137] Memory required for data: 8086800
I0823 15:23:37.347894 39958 layer_factory.hpp:77] Creating layer accuracy
I0823 15:23:37.347919 39958 net.cpp:84] Creating Layer accuracy
I0823 15:23:37.347929 39958 net.cpp:406] accuracy <- ip2_ip2_0_split_0
I0823 15:23:37.347961 39958 net.cpp:406] accuracy <- label_mnist_1_split_0
I0823 15:23:37.347980 39958 net.cpp:380] accuracy -> accuracy
…
